…
","    num_labels=len(labels)\n",")"]},{"cell_type":"code","execution_count":null,"metadata":{"id":"2AN6u-sNHtOB","outputId":"637b1577-5f42-426e-9275-54c46abc7ad7","colab":{"base_uri":"https://localhost:8080/"},"executionInfo":{"status":"ok","timestamp":1730574123302,"user_tz":-330,"elapsed":7,"user":{"displayName":"Sampurn Rattan Jain","userId":"06576935819770331644"}}},"outputs":[{"output_type":"execute_result","data":{"text/plain":["ViTForImageClassification(\n","  (vit): ViTModel(\n","    (embeddings): ViTEmbeddings(\n","      (patch_embeddings): ViTPatchEmbeddings(\n","        (projection): Conv2d(3, 768, kernel_size=(16, 16), stride=(16, 16))\n","      )\n","      (dropout): Dropout(p=0.0, inplace=False)\n","    )\n","    (encoder): ViTEncoder(\n","      (layer): ModuleList(\n","        (0-11): 12 x ViTLayer(\n","          (attention): ViTSdpaAttention(\n","            (attention): ViTSdpaSelfAttention(\n","              (query): Linear(in_features=768, out_features=768, bias=True)\n","              (key): Linear(in_features=768, out_features=768, bias=True)\n","              (value): Linear(in_features=768, out_features=768, bias=True)\n","              (dropout): Dropout(p=0.0, inplace=False)\n","            )\n","            (output): ViTSelfOutput(\n","              (dense): Linear(in_features=768, out_features=768, bias=True)\n","              (dropout): Dropout(p=0.0, inplace=False)\n","            )\n","          )\n","          (intermediate): ViTIntermediate(\n","            (dense): Linear(in_features=768, out_features=3072, bias=True)\n","            (intermediate_act_fn): GELUActivation()\n","          )\n","          (output): ViTOutput(\n","            (dense): Linear(in_features=3072, out_features=768, bias=True)\n","            (dropout): Dropout(p=0.0, inplace=False)\n","          )\n","          (layernorm_before): LayerNorm((768,), eps=1e-12, elementwise_affine=True)\n","          (layernorm_after): LayerNorm((768,), eps=1e-12, elementwise_affine=True)\n","        )\n","      )\n","    )\n","    (layernorm): LayerNorm((768,), eps=1e-12, elementwise_affine=True)\n","  )\n","  (classifier): Linear(in_features=768, out_features=10, bias=True)\n",")"]},"metadata":{},"execution_count":20}],"source":["model.to(device)"]},{"cell_type":"markdown","metadata":{"id":"aQJ441I6HtOB"},"source":["We can see the characteristics of our model."]},{"cell_type":"markdown","metadata":{"id":"8qWxmujiHtOB"},"source":["Now, all instances can be passed to ```Trainer```."]},{"cell_type":"code","execution_count":nu
…
